assignment2_mnist_lenet_model.pth (torch, 181868 bytes, 10 tensors)

conv.0.weight f4 [6, 1, 5, 5]
000000 50 8c 8a 3e c5 c9 02 be 1e f5 8e be fb 6c 8e be
       0.27060175 -0.12772281 -0.27921385 -0.2781752
000010 cc aa e0 bd 74 ce 89 3d 4f 0e 25 be 39 12 cb be
       -0.10970077 0.06728831 -0.1611874 -0.3966234
000020 e9 c2 64 be 62 c8 47 be 0d e0 a1 bd 9c 07 b8 be
       -0.22339977 -0.19510034 -0.079040624 -0.35943305
000030 27 6c 16 be b8 e8 fb 3d 07 a9 2e be 78 d6 88 3e
       -0.14689694 0.12300247 -0.17056666 0.26726127
000040 cd 04 77 3d a0 de ba 3d 7d 59 7f 3e 0e a1 a2 3d
       0.060307313 0.091244936 0.24936481 0.07940875
000050 19 65 ac 3e e2 44 b2 3d d1 d4 bd 3e 7b af 35 bd
       0.3367088 0.087045446 0.3707643 -0.044356804
000060 40 d6 7b 3d fd db 57 be 48 19 db be f6 68 58 be
       0.06148362 -0.21080013 -0.42792726 -0.2113379
000070 48 75 5f 3d f1 02 fe bc f9 bc af be 59 9b df bd
       0.054555207 -0.031007262 -0.34323862 -0.10918302
000080 9d d2 69 be 58 c2 26 be 3f 8d 6d ba 9e 33 9c be
       -0.22834249 -0.16285074 -0.000906188 -0.3050813
000090 96 f0 4d bd 9b de e2 3d bb 89 f2 3b af ef 42 3e
       -0.05027827 0.11077615 0.0074016727 0.19036745
0000a0 0c 75 c3 bb 99 92 4c 3e b3 39 91 3e 1f e7 fc 3d
       -0.005964881 0.19977798 0.28364334 0.1234877
0000b0 fa b9 34 3d 4e b6 8e 3e 17 43 bd 3e 93 ae f1 3c
       0.044122674 0.27873462 0.36965248 0.029502189
0000c0 c7 a5 8b 3d fa bb 55 3e e1 98 52 be b5 54 bb 3d
       0.06818729 0.20872489 -0.20566131 0.09147016
0000d0 a1 46 c3 3e 03 11 bd 3e 5f ba 2e 3e 7c 23 4b bd
       0.38139823 0.3692704 0.17063282 -0.049594387
0000e0 c5 fe af 3e b3 39 d2 3e 57 82 c4 3e 05 62 3f 3a
       0.3437406 0.41059646 0.3838069 0.0007300678
0000f0 83 fb 94 bd 2a 91 b8 3e 20 1e 6b 3e f7 b0 f8 3b
       -0.072745346 0.3604825 0.2296071 0.007589455
000100 91 51 18 be 89 23 a9 be 09 7d 2f 3d 11 82 31 be
       -0.14874865 -0.33034924 0.042843852 -0.17334773
000110 42 4e 35 3d bc 13 b2 be a2 61 5b be 34 ea 91 be
       0.044264086 -0.3478068 -0.21423963 -0.28498995
000120 95 25 a3 be 95 c0 7e bd 82 ac a3 bd f0 11 74 be
       -0.3186461 -0.06219538 -0.07991888 -0.23834968
000130 6b 80 6c 3b 2f e1 6f 3e d4 6a 61 3e 77 02 f5 3d
       0.0036087285 0.23425744 0.22013408 0.11963361
000140 d3 63 47 be f4 3e 87 3e a5 ea b8 3e 2f 85 ce 3e
       -0.19471674 0.26415217 0.3611652 0.40335986
000150 dd 98 b6 3e f8 5c ce bd d7 1a fd 3d f9 5e dd 3e
       0.356635 -0.10076326 0.12358635 0.4323652
000160 69 c6 8b 3e 1c b8 09 3e 95 ba 6b be 63 a4 74 3d
       0.27299812 0.13449138 -0.23020394 0.059727084
000170 bc 7f 14 be 93 98 3a be 2b 66 2f be 56 4e 77 be
       -0.14501852 -0.18222265 -0.17128818 -0.24150977
000180 7d 01 b1 be 65 08 4b be 89 b6 41 be d8 94 86 3d
       -0.34571448 -0.19827421 -0.18917288 0.065713584
000190 79 73 9e be 8a ff c6 bd 9b a4 25 be d3 33 24 bd
       -0.30947474 -0.09716709 -0.16176073 -0.040088486
0001a0 da 7f 76 be 5b 99 df ba 73 c5 da bd 1a da 3d bd
       -0.24072209 -0.0017059253 -0.10682192 -0.046350576
0001b0 7e 14 c8 bc 0b 8c 75 be 6c 3a 8e 3e 99 3b b1 3e
       -0.024423834 -0.23979203 0.27778947 0.34615782
0001c0 3f ba 30 3e a2 9c e7 3d 3d 8b 6e be 58 24 ea 3e
       0.17258547 0.11309172 -0.23295303 0.45730853
0001d0 af c3 d5 3e 68 fd 9b 3d eb be 39 be f4 a8 91 3d
       0.41750857 0.07616693 -0.18139236 0.071123034
0001e0 09 93 26 3e 4f 66 c9 3e f8 fc 90 3e f6 d2 9c be
       0.16267027 0.39335868 0.28318 -0.306297
0001f0 e1 1d 00 3c f8 0c 13 bd 02 e0 e5 bd 08 bb 95 be
       0.007819624 -0.03590104 -0.11224367 -0.29244256
000200 e5 68 83 be a7 b4 92 bd ff c7 de bd 4b ef 59 3e
       -0.25665966 -0.07163363 -0.1087799 0.2128269
000210 6e 63 9a bd 5f 0d b6 be 04 e2 81 be b5 66 ff bb
       -0.07538496 -0.35557076 -0.2536775 -0.007794226
000220 c7 d5 c2 3e 06 3d f2 3d 41 28 00 be c5 cc 3f be
       0.38053724 0.118280455 -0.12515356 -0.18730457
000230 4b 33 ce 3e 0e 9c d3 3e a5 fb 73 3e 7b e1 0c be
       0.40273508 0.41329998 0.23826464 -0.13757889
000240 52 9c bd bd b0 6d fb 3e a9 81 c0 3d 0f fa 0e 3e
       -0.09258331 0.49107122 0.09399731 0.13962577
000250 75 9c 72 bb 93 53 9c 3d
       -0.0037019525 0.07633128

conv.0.bias f4 [6]
000000 28 47 68 bd 03 3e 75 3d f2 68 96 3e 70 52 a8 3e
       -0.056708485 0.059873592 0.29376942 0.32875395
000010 cf f7 c8 3e 25 0b aa bd
       0.39251563 -0.08302907

conv.3.weight f4 [16, 6, 5, 5]
000000 4c 67 d5 3d 8a 2f 35 3d 48 6a b1 3d 6e c8 98 3d
       0.10420093 0.04423479 0.0866285 0.07460104
000010 08 6c c4 bd a8 87 a1 3d 8b 1b 31 3d 17 26 f5 3d
       -0.09590918 0.078872025 0.043239158 0.11970156
000020 21 26 48 be 2a 35 00 bd a8 16 a6 3d 24 8b 01 3e
       -0.19545795 -0.0313007 0.0810979 0.12650734
000030 5a 5c c7 bd 0f fd 1b be 38 c9 1a 3e 31 7c 46 3d
       -0.097344115 -0.15233253 0.15115821 0.048458282
000040 fe 65 82 3d 97 1a d4 bd d8 c1 77 bd 45 d7 64 3e
       0.0636711 -0.10356634 -0.0604876 0.22347744
000050 2e 1d c4 3d b0 e0 ba ba 16 b5 2b be f4 ed 56 bd
       0.09575878 -0.0014257636 -0.16768298 -0.052473024
000060 23 53 5d 3e f7 9a 3e 3e 76 fc 3d 3e e9 be 0c 3e
       0.21613745 0.18613802 0.18553337 0.13744701
000070 ad 12 09 3e 85 ca 49 3d dd d7 25 3e fe 75 36 3e
       0.1338603 0.049265403 0.16195627 0.17818448
000080 b7 d4 52 3e 64 a5 6c 3d 0d b2 45 be 65 b4 2f 3d
       0.20588957 0.057774916 -0.19306202 0.042896647
000090 96 d1 81 3c 9b 67 86 3e 13 65 3b be 8a 0e 1d be
       0.015847009 0.2625092 -0.18300276 -0.15337577
0000a0 44 61 3f bd 14 b4 4a 3d ae fb 8c 3e 2f 05 6a be
       -0.04672362 0.049488142 0.27535766 -0.2285354
0000b0 82 b8 60 be 74 8e 7b 3d d5 e7 02 3e 68 3a 0b 3e
       -0.21945384 0.06141515 0.1278375 0.13596499
0000c0 98 78 73 be 17 b3 31 be 08 40 00 be 8c 2f b9 bd
       -0.23776472 -0.17353474 -0.12524426 -0.09042272
0000d0 76 d7 ca bd 08 1f 3d bd 5a af 0b 3d f3 2e bd bd
       -0.09904377 -0.04617217 0.034102775 -0.092374705
0000e0 10 ac 20 be 02 0e 60 bd 0e bb 86 3e 7e 92 fb 3d
       -0.15690637 -0.05470086 0.26314586 0.122838005
0000f0 04 21 1a bd bb 63 38 be 64 33 e7 3d 3e d4 0d 3e
       -0.037629142 -0.18006794 0.11289099 0.13850495
000100 72 2d 3c bd 5a 5b cd ba 51 3c 67 be 6e aa 75 3e
       -0.045941778 -0.0015667484 -0.22581603 0.23990795
000110 51 a0 11 3e b9 68 6a be 32 9a ca bd a6 98 5b bd
       0.14221312 -0.22891511 -0.09892692 -0.053612374
000120 9b 3c 85 3e e0 0a 86 3d 67 a7 37 be 8e a3 48 be
       0.260228 0.06545043 -0.17934953 -0.19593641
000130 9e be f9 bd 52 02 a1 bd 33 6f 8c 3d 0e ce e9 3d
       -0.121945605 -0.07861771 0.06857147 0.11416255
000140 d5 58 09 be dd dd b4 bd 9e 96 00 3e b4 54 47 3e
       -0.13412793 -0.088313796 0.12557456 0.19465905
000150 fc af 2b bd 7e cb dc bd 07 07 93 bd 33 f7 62 3e
       -0.04191588 -0.107810006 -0.07179075 0.22164612
000160 ed 7d 1a 3e a6 eb ee bd 41 31 a9 ba 87 6d bb bd
       0.150871 -0.1166604 -0.0012908356 -0.0915175
000170 d4 4d 85 3e 77 ec 73 3d 31 62 02 be e0 33 af bd
       0.2603594 0.059551682 -0.1273277 -0.08554816
000180 68 c8 04 3d dd 09 6a 3e 70 72 80 3d 59 7b ea bd
       0.032417685 0.22855325 0.06271827 -0.11449308
000190 42 85 3f be f3 5d 09 be 82 9a 8c be 04 9b 9d 3d
       -0.18703178 -0.13414745 -0.2746163 0.076955825
0001a0 d3 25 3f 3e 90 e4 11 3c b8 00 20 3d e5 0b c1 bd
       0.18666773 0.008904591 0.039063185 -0.09426097
0001b0 cc b3 28 3e 4b cd ac 3d f3 23 15 3d 4a f7 85 bd
       0.16474837 0.08437594 0.036411237 -0.06541307
0001c0 ab fa ef bc d7 06 80 3e 94 06 1e 3e e4 74 8a bd
       -0.029294332 0.25005218 0.15432197 -0.06760576
0001d0 b6 78 cb bd 9b a5 b4 3d 8f b0 8f 3e 8f 3c 03 3e
       -0.09935133 0.08820649 0.2806439 0.1281607
0001e0 24 75 87 bd 96 ab 4e 3c b4 14 9d 3d 22 9a 2a 3e
       -0.0661414 0.012614151 0.076699644 0.1666036
0001f0 60 3c b3 3d 5a c1 7d be af 6d 8a bd 44 85 48 be
       0.0875175 -0.24780789 -0.06759202 -0.19582087
000200 e0 83 8a bc 5b af 43 3d 1d 24 db bd db 17 21 3d
       -0.016908586 0.047774654 -0.107002474 0.03932939
000210 f1 db 8d be 09 e3 3f 3e 9c 53 33 3e 1c b8 ca bd
       -0.27706864 0.18738951 0.17512363 -0.09898397
000220 b5 8c 8a bd af ee 5e be 47 21 93 3e b4 75 b5 3d
       -0.06765119 -0.21770738 0.28736326 0.08860341
000230 a8 25 18 3d bb 8f de bd cb 62 3f bd f0 a2 08 3e
       0.037145287 -0.10867258 -0.046725076 0.13343406
000240 4a 76 d6 3d 4f 8e a2 3d 60 5d 8c bd 01 b3 c0 bb
       0.104717806 0.079372995 -0.06853747 -0.005880714
000250 d0 93 51 3d 4a 2d aa bc fb 60 7c 3d 82 f5 83 3b
       0.051166356 -0.020773549 0.061615925 0.0040270695
000260 2f 8f 5e bd 3f cb f6 3a 85 e8 0c 3e 9d 00 e0 3d
       -0.05433577 0.0018828883 0.13760574 0.10937617
000270 22 6b 06 3e f3 5e 20 3e 47 9a d6 3d fa 17 a8 3d
       0.13126805 0.1566122 0.10478645 0.08207698
000280 fd 48 82 39 96 17 4d bd c9 3d 39 be 0f 6e 4c be
       0.00024849913 -0.05007132 -0.18089975 -0.19963859
000290 aa b5 0a be ee f4 bc 3d 45 ed 29 be 19 d9 0e be
       -0.13545862 0.09226404 -0.16594417 -0.13950004
0002a0 60 df 53 bd 1c 7d c0 3d 91 94 96 3e 31 79 96 3d
       -0.0517267 0.09398863 0.29410222 0.07347334
0002b0 25 6b 73 bd f8 d4 d4 3d 61 b2 02 3e d6 2d 2c 3e
       -0.059428353 0.10392183 0.12763359 0.1681436
0002c0 41 1a 5c bc 02 cd e9 bc 79 20 44 3e 6f 71 73 3d
       -0.013433994 -0.028540138 0.19153012 0.05943435
0002d0 7d a6 0a 3d dc 6f d6 3d e5 bf 3a 3e da 1c 17 3e
       0.03385018 0.10470554 0.18237264 0.147571
0002e0 35 eb 0f 3e c6 08 57 bd 27 83 fa 3d 8a 6f a9 3d
       0.14054568 -0.0524986 0.122320466 0.082732275
0002f0 bb 08 1c be 83 e7 e7 bd 26 de 74 bb c2 0e 82 bd
       -0.15237705 -0.11323454 -0.0037363856 -0.06350471
000300 f7 63 a7 be 1f ef 43 be b1 84 34 3d 2d be 82 3e
       -0.32693455 -0.19134186 0.044071857 0.25535718
000310 fc a2 08 3e a9 6c 0a be e2 4f 8e bd cc 3c 64 bc
       0.13343424 -0.13518013 -0.0694883 -0.013930511
000320 84 85 8c bd c3 8c 4e 3d 3c 71 ef 3d 3f 93 13 3a
       -0.068614036 0.05042721 0.116915196 0.00056295464
000330 a9 74 6f 3d 7a 57 16 be 52 67 82 be c9 0e 85 bc
       0.058460865 -0.14681807 -0.25469452 -0.016242402
000340 91 25 45 3d aa 7d c4 3c f3 ac 39 bb 03 27 b1 3d
       0.04813153 0.023985703 -0.0028331846 0.08650019
000350 e7 17 7a 3e ef 27 92 3e 7e 01 5e 3e cb a4 c7 bb
       0.2442318 0.28546092 0.21680257 -0.006092643
000360 7c 6c 31 3e c3 a1 96 3e 29 6b 9e 3c c5 50 93 bd
       0.1732654 0.2942029 0.019338207 -0.0719314
000370 12 b9 6c be a9 33 0f bd c4 b9 9b 3d 99 fd fe bd
       -0.23117474 -0.034961376 0.07603791 -0.12450714
000380 1c a4 00 bd 58 c2 c3 bd c6 ef 7e bd df b8 3e bd
       -0.031406507 -0.095585525 -0.062240385 -0.046563026
000390 b9 72 7a bc 53 62 93 bd e8 16 25 be 77 1e 4c be
       -0.015286141 -0.07196488 -0.1612202 -0.19933496
0003a0 c4 74 7e bc 7d 5e 1f 3d 80 ae c7 bc 27 d9 86 3d
       -0.015530769 0.03890847 -0.0243752 0.06584387
0003b0 77 23 8b 3d 09 12 32 3e a7 51 a8 3e 22 0c 69 3e
       0.06793874 0.17389692 0.32874796 0.22758535
0003c0 32 d9 ef bd 7d 06 fc 3d 05 e1 36 3e 61 54 8e 3d
       -0.117113486 0.12305925 0.17859276 0.06949688
0003d0 86 73 a0 bd 70 d8 8c be 0d 2e 4e bd f6 b5 28 3d
       -0.07834534 -0.2750888 -0.050336886 0.041189156
0003e0 f2 5f cb bd 79 72 bb bc 9c 1b cd bd 5a 27 ae bb
       -0.099304095 -0.022881733 -0.10015032 -0.0053147497
0003f0 09 cb d9 bd 8f c9 c7 3d d9 1a 31 3c 22 16 2f bd
       -0.10634429 0.09755241 0.010809624 -0.042745717

conv.3.bias f4 [16]
000000 ac 57 0a 3e 28 25 ff 3d c8 b8 0b bd 00 65 bf 3d
       0.13510007 0.12458259 -0.034111768 0.09345436
000010 d3 99 e7 bd b2 ad 94 3d 26 24 28 bc d0 fa f6 3d
       -0.113086365 0.07259692 -0.010262525 0.120595574
000020 74 1d 86 bd ac 03 a8 bd de 56 5e 3c 00 cf 89 be
       -0.065485865 -0.08203825 0.013570515 -0.2691574
000030 1e 3a 79 3c 94 ee 5a 3e 9d cb 12 be 94 e3 71 3c
       0.01521161 0.21380073 -0.14335485 0.0147637315

fc.0.weight f4 [120, 256]
000000 ac 10 cf bd b1 ed 08 be 84 70 c0 bc 31 c6 0c be
       -0.10110602 -0.13371922 -0.023491152 -0.13747479
000010 59 9d 05 3e 14 b1 bf bd bb 2f f2 bd 24 b6 04 bd
       0.13048305 -0.09359947 -0.1182551 -0.032400265
000020 4d 99 82 3d 35 76 e7 bd cc 3e ca 3b e8 3f 88 3d
       0.06376896 -0.11301843 0.0061720368 0.06652814
000030 cf 89 4e 3e 73 be b5 3c db c2 77 3d 93 a9 f1 3d
       0.20169757 0.02218554 0.060488563 0.11799922
000040 5f 6d 41 3c a4 95 49 3c 53 df 81 bd 7c 7c 38 be
       0.011805861 0.0123037435 -0.06341424 -0.18016237
000050 a4 37 6d bc 52 a3 5e 3d 76 e8 ce 3d 42 76 84 bd
       -0.014478598 0.054354973 0.10102932 -0.064678684
000060 96 43 ec 3d 06 de 24 b8 ac 56 11 3d 7a a2 6b 3d
       0.115363285 -3.9307422e-05 0.035483047 0.057527997
000070 cf 0d 72 3d 06 8b 39 be 11 23 1a be da 8d da 3d
       0.0590952 -0.1811944 -0.1505244 0.10671587
000080 e8 bf e2 3d b4 db 93 3c ff 28 04 3d e9 97 bd bd
       0.110717595 0.018049099 0.03226566 -0.0925749
000090 98 bf c6 bb f8 91 81 3d 40 9e bf bd e0 57 15 bd
       -0.00606532 0.063266695 -0.09356356 -0.036460757
0000a0 b4 1a 08 be b2 ad 33 3c d5 db 1b 3d d2 0c 0c 3e
       -0.13291436 0.010966705 0.038051445 0.13676766
0000b0 8c 53 77 bc c3 59 af bd 77 e2 9b bd 10 f0 88 bc
       -0.015095603 -0.085620426 -0.07611554 -0.016716033
0000c0 e0 b5 81 3c 35 dd 0a 3d 5d 86 cb bc 5f fe 7e 3c
       0.015833795 0.033902366 -0.024844343 0.0155635765
0000d0 64 92 eb bc 0b 6d 9c bd 67 65 b0 3b aa e0 92 3d
       -0.028756328 -0.07637986 0.005383182 0.071717575
0000e0 15 ed f1 bd a8 da 8f 3d 6d 53 6d 3d c9 9b 88 bd
       -0.11812798 0.07024127 0.05794089 -0.06670339
0000f0 01 b0 69 bd 95 a5 37 3e 71 61 46 3d 4a 53 cd bc
       -0.057052616 0.17934258 0.04843277 -0.02506413
000100 29 7a f3 bc 1f fc 5f bc 4f e1 1c be 6c b6 5f bd
       -0.029721336 -0.01367095 -0.15320323 -0.05461733
000110 50 e0 0e be 96 d9 da bd 63 dc a4 3c a0 e2 fc 3c
       -0.13952756 -0.106860325 0.02012462 0.030869782
000120 4e 2b 91 bd d7 83 72 3d 83 b4 b5 3d 1e 41 d7 bb
       -0.07088338 0.059207764 0.088723205 -0.006569042
000130 96 cb 84 3d 9f 7a 2a 3e 51 99 f8 3c 94 62 60 bc
       0.064841434 0.16648339 0.030346544 -0.013695378
000140 ef 25 f4 3c a1 dc 3a be b7 35 30 3e 94 db 0d 3e
       0.029803244 -0.18248226 0.1720799 0.13853294
000150 15 7e 5a 3e 79 91 08 3c 86 e4 41 bd 82 89 d8 3c
       0.21337159 0.008335465 -0.047337078 0.026432756
000160 ac 41 f5 bc 0c 84 ca 3b 90 54 72 bd b5 e4 c0 bd
       -0.029938541 0.006180292 -0.059162676 -0.094186224
000170 63 b3 c8 bd 89 4d 01 3d 74 b2 e6 bd e1 65 a3 be
       -0.0979984 0.031568084 -0.11264506 -0.31913665
000180 fd 7c c6 bc 2c ed 39 3e fe bd 2c bd eb 51 af bd
       -0.024229521 0.1815688 -0.04217338 -0.085605465
000190 57 4c b2 3c ca 6e a4 3d 63 b7 dc 3d 6c 85 a0 bd
       0.021764917 0.08028944 0.10777166 -0.07837948
0001a0 17 0d 34 3e a9 1f c6 3d 42 b3 84 bd ed 2d b9 3d
       0.17583118 0.096740074 -0.06479503 0.09041963
0001b0 15 dd 8d 3c 03 5b 18 bd 2f 84 99 be 3f 54 8f be
       0.017317334 -0.03719617 -0.2998366 -0.27993962
0001c0 06 49 77 3d 87 94 28 be 6c bd 76 bd 9a 81 21 3e
       0.060372375 -0.16462909 -0.06023924 0.15772095
0001d0 35 71 55 3d a1 0b 09 bd 55 bd 9e 3c 66 24 ce bd
       0.052109916 -0.033458356 0.01937739 -0.10065536
0001e0 3d 3e 58 bd 7d 92 dc bb d8 af 00 be be 0f c2 bd
       -0.05279373 -0.00673133 -0.12567079 -0.09475659
0001f0 03 85 00 3c 75 77 db 3c ba d2 07 3d a6 04 1b be
       0.007844212 0.02679036 0.03315995 -0.15138492
000200 b8 49 b3 bd d4 50 22 bd 5d e0 52 3d c8 4a 50 3d
       -0.08754295 -0.039627865 0.0514835 0.050852567
000210 e0 9c f3 bd 0b 6d 01 be 6c 8a bb 3d ef 3e 73 3d
       -0.11895156 -0.12639253 0.09157261 0.05938619
000220 ea 89 3a be cd e7 d6 bc d3 fb d7 3d 34 67 89 bd
       -0.18216673 -0.026233578 0.105460785 -0.067091376
000230 67 93 9f 3c b5 f2 9c 3d bc 7b e1 3d e3 75 97 bc
       0.019479467 0.0766348 0.110099286 -0.01848883
000240 01 3d d6 3c aa bc b6 3d 04 ec 80 bd 85 f5 aa bd
       0.026152136 0.089227036 -0.062950164 -0.083476104
000250 fd 26 a3 3d e6 9d dc bc f1 9b 6a be bc 6f 05 3e
       0.07966421 -0.02693076 -0.2291105 0.13030905
000260 9f 75 c6 bd d8 1c 64 3d c0 7a 92 3d c6 0c 06 3d
       -0.09690403 0.05569157 0.07152319 0.032727025
000270 5c 3e ae 3c 51 3d 04 3e 21 8d 8a 3e 8e 18 7c 3c
       0.02126997 0.12914015 0.27060798 0.015386714
000280 09 32 77 bd e1 76 17 3d dd 26 05 3d a6 f6 b4 bc
       -0.06035045 0.036978606 0.032507766 -0.022090267
000290 d6 0f 81 3d 3c 00 98 bd bf 2b 81 3d bf a5 76 3c
       0.063018486 -0.0742192 0.06307172 0.015054165
0002a0 0f 8f 91 3d 25 35 23 bd bf b4 d2 bc 5a 58 9b 3d
       0.071073644 -0.039845604 -0.025720952 0.07585211
0002b0 ed fa ec bc 92 61 45 3e 3f 85 86 3c da 73 00 bc
       -0.028928244 0.19275501 0.016420959 -0.007840121
0002c0 44 00 07 3c cf a1 bd 3e cb 2d 45 3e bf 73 52 be
       0.008239809 0.37037513 0.1925575 -0.20551966
0002d0 c2 8d f7 bc 7c 9a d7 ba af 6f 6c 3d 20 44 22 bd
       -0.030218963 -0.0016449238 0.057723697 -0.03961575
0002e0 5c 4e ba 3d 72 ba 79 3d b8 5e db bb 25 f6 47 bd
       0.09096977 0.060968824 -0.006694641 -0.048818726
0002f0 70 b2 4e 3d 98 38 25 be 2c 20 7a be b9 2e 0f bc
       0.05046314 -0.1613487 -0.24426335 -0.008739167
000300 9a b7 3c bb bb ba 29 be dd 47 d9 3c 44 22 1a 3d
       -0.0028795958 -0.16575138 0.026523525 0.037630334
000310 82 ab 7c bc c6 d3 38 3e 71 d6 1f be 00 96 ca bc
       -0.01542175 0.18049535 -0.15609147 -0.024729729
000320 5a bf 72 3d b5 86 1b be 07 d8 1b 3d 22 cb 15 bc
       0.05926452 -0.15188105 0.038047817 -0.009142669
000330 fa 80 af 3d 67 b8 d7 bd 9c 55 e3 3b 92 85 0b 3e
       0.08569522 -0.10533219 0.0069376957 0.13625172
000340 a6 a4 c0 bd d0 f2 6c bc 2f 49 64 bc 47 4e 69 3e
       -0.09406404 -0.014462188 -0.013933464 0.22783767
000350 a7 09 68 bd d3 9d 22 be 25 9c 79 3e 5e 58 26 3e
       -0.05664983 -0.15880518 0.2437597 0.16244647
000360 bf fc f7 bb 73 dc 26 3e 80 fc 0c 3e 20 52 b8 bd
       -0.0075679715 0.16295032 0.13768196 -0.09000039
000370 70 5c bf bd 1c 3a b5 3c ff 25 a7 3c d2 03 75 be
       -0.09343803 0.022122435 0.02040386 -0.23927239
000380 b7 92 fd bd 2d d5 52 be 2d 8e 62 bd bf 73 b2 ba
       -0.12381499 -0.20589133 -0.05531137 -0.0013614817
000390 e6 65 73 bd ac aa 44 3d c4 4e 13 3d 13 90 7a bd
       -0.05942335 0.048014328 0.03596379 -0.061172556
0003a0 c5 40 9b 3c 55 8d 8b bd 78 20 2a 3e 29 29 c5 bd
       0.018951783 -0.06814066 0.16613948 -0.09626991
0003b0 12 22 2e 3e a4 90 f4 3d 65 14 1a bd 35 70 5b 3e
       0.17005184 0.119416505 -0.037617106 0.21429522
0003c0 3a bd 51 3d 5e e8 8a bd c5 47 23 be 96 e5 a3 bc
       0.05120585 -0.06782602 -0.15945347 -0.020006936
0003d0 fa 2a 78 bd 99 c2 6c bd eb 2a 83 3e a8 0e 9c 3d
       -0.06058786 -0.05780277 0.2561868 0.07619983
0003e0 eb 26 82 bc 2d 7d 62 3d 2f 90 63 bd 49 c0 c6 bd
       -0.015887698 0.05529516 -0.055557426 -0.09704644
0003f0 74 da ae bc d2 ae 0b 3b f5 df 6c bd 2a b6 8a bd
       -0.021344401 0.0021313918 -0.05783077 -0.06773026

fc.0.bias f4 [120]
000000 e7 a9 a8 3d 0d de 55 3d bd e0 75 3c a5 d6 11 3c
       0.08235531 0.052213717 0.015007195 0.008901273
000010 6b e5 a1 bd 7f 7e 07 3e c1 10 af 3a 81 39 6f 3c
       -0.07905086 0.13231848 0.0013356433 0.014601112
000020 a8 b9 c2 3d f1 04 4b 39 3b 9b 21 3d 97 3f 70 3b
       0.09508067 0.0001936143 0.03945468 0.0036658996
000030 53 d4 ba 3d 4e 38 86 bd d6 26 47 bd ab 72 80 bd
       0.09122529 -0.06553708 -0.04862102 -0.06271871
000040 7e 4d f9 39 2b 50 10 3e 08 4e 5d bd b9 e3 ab 3c
       0.00047550717 0.14093082 -0.054029495 0.02098261
000050 3f f1 53 bd 8b 59 83 bd 28 b1 af bd 00 a3 e7 bb
       -0.051743742 -0.06413563 -0.08578712 -0.0070689917
000060 ed b4 6f 3c 66 ac 9c bd 28 03 30 3d 8b a0 65 bc
       0.014630538 -0.0765007 0.04297176 -0.014015327
000070 b5 30 42 3c 25 d2 b9 3d a9 46 d1 bc 47 07 37 3d
       0.011852433 0.09073285 -0.025546389 0.044684675
000080 07 30 85 bd 7c c2 f2 3c 0b 34 bb bd 9e d9 af bb
       -0.06503301 0.029633753 -0.09140786 -0.005366518
000090 67 37 4b 3c 6e c4 19 bd 4a 30 9f 3d 12 f6 bc 3d
       0.012403346 -0.037540846 0.07772882 0.09226622
0000a0 2f 7d 41 bd 9e 32 81 bd 6d ee cb 3c fb 12 fa 3d
       -0.047238525 -0.063084826 0.024893964 0.122106515
0000b0 08 a7 88 3d 79 1b fc 3c 74 86 b7 3d c4 d4 83 bc
       0.06672484 0.030774819 0.08961192 -0.016092665
0000c0 19 49 ca 3c 87 38 4e 3d bb dd ff ba 1b 0b 7d 3d
       0.024693059 0.050346877 -0.0019521037 0.06177817
0000d0 79 d5 40 3d a4 ea c2 3d a3 92 56 3d e1 f2 a9 bd
       0.047078583 0.095174104 0.052385937 -0.082982786
0000e0 77 9b 86 3d 4f 48 ad bc 1c fd ea 3d 48 8a 81 bd
       0.06572621 -0.021152643 0.11474058 -0.06325203
0000f0 0f f9 04 bd 62 8d 5e bd 09 5c 0f bd f3 2a 7c 3d
       -0.032464083 -0.054334052 -0.03499988 0.061564397
000100 13 fa 89 3d 3f 79 87 bd 2d 07 cf bc 90 82 1c be
       0.06737151 -0.06614923 -0.025271976 -0.1528418
000110 88 79 f1 bd 16 45 65 bd 4f 9c d6 bd dc de 17 3d
       -0.11790758 -0.05597409 -0.10479032 0.03707777
000120 07 ce f3 3d fc c7 49 bd 4b d4 af b9 e5 2c 64 bd
       0.11904531 -0.049262986 -0.00033536772 -0.055706877
000130 3a 68 bf 3d b9 8d 8f bd 07 b0 b3 bb 47 ff 5e 3c
       0.093460515 -0.07009453 -0.0054836306 0.013610668
000140 ea 8e a3 bc aa fe ec ba 83 93 eb 3c e1 c7 ef 3d
       -0.019965608 -0.0018081267 0.028756863 0.11708046
000150 e5 3d 33 bb 67 aa 2c bd 34 b1 af 3d b0 a9 44 bc
       -0.0027350124 -0.042154696 0.08578721 -0.012003347
000160 7b 08 25 bd 0a 31 43 bd d7 7d 90 3d 44 d7 6f bd
       -0.04029129 -0.04765419 0.07055252 -0.058554903
000170 90 aa a9 bd 33 da 8c 3d 22 71 5e 3d d0 ac 9b bc
       -0.08284485 0.06877556 0.05430711 -0.019003302
000180 c3 8d 8d 3c 0a 8a 85 bb 32 ef 9b 3d f2 f2 4b 3d
       0.017279511 -0.0040752934 0.07613982 0.049792238
000190 19 b7 81 bd 05 b8 31 3d 93 73 94 3d 03 7e 0a 3b
       -0.06333751 0.043388385 0.072486065 0.0021132238
0001a0 6b 87 2d 3d 29 8c 88 bd 9e cd 18 bb 25 1f 0e 3d
       0.042365473 -0.066673584 -0.0023315917 0.03469767
0001b0 59 91 7d 3c 09 0c 73 bd 17 62 d3 bc e8 56 02 bc
       0.015476548 -0.05933765 -0.025803609 -0.00795529
0001c0 c2 1d 09 3c f9 01 11 be da 6b cb bd a7 db 22 be
       0.008368911 -0.14160909 -0.099326804 -0.15904103
0001d0 59 cf 16 3e b7 6c 42 3d 16 1a 1f 3e 1d ca 43 bd
       0.14727534 0.04746696 0.15537295 -0.047800172

fc.2.weight f4 [84, 120]
000000 55 c5 9a 3d a8 6d c5 3d d0 63 86 3e ce 0d f8 bd
       0.07557169 0.09640056 0.26248026 -0.12112008
000010 d9 88 fb 3c d9 6b fc 3d af 73 c9 bd 07 63 ae bd
       0.030704902 0.12325258 -0.09836518 -0.08514982
000020 a3 5d ef 3d 85 fd c3 bd 52 ab 0e 3e c8 a3 c8 bc
       0.11687782 -0.095698394 0.13932541 -0.02449216
000030 ac 6e 56 3e 14 d3 87 bb db fd 2e be 4a 59 2b 3e
       0.20940655 -0.0041450355 -0.17089026 0.1673328
000040 dc a2 5c bd a9 8a 2f 3e 3a 69 e8 3c 4d 4e b6 bd
       -0.053866252 0.17142738 0.028370488 -0.089016534
000050 24 76 df 3d 76 c9 86 bd 66 5f f8 3c 57 e2 85 bd
       0.109112054 -0.065813944 0.030318927 -0.065373115
000060 62 2c d3 3d 56 eb 86 bd 3c bb 73 be be 20 02 bd
       0.103112 -0.065878555 -0.23801893 -0.031769507
000070 d0 4b 84 3e 9a ba 8f bd b9 ec 8e bd 53 c4 00 bd
       0.2583909 -0.07018013 -0.06978745 -0.03143723
000080 cf 65 48 3c ad af 56 3d f4 8c ac bd 25 5e 55 bd
       0.012231304 0.05241363 -0.08425322 -0.052091736
000090 74 87 06 3e 56 d2 2a 3e 27 31 94 3d 97 de a2 3d
       0.13137609 0.166818 0.072359376 0.07952612
0000a0 0f 27 4f 3e 9e d9 66 3d d0 7e 34 3e d2 58 4f bc
       0.20229743 0.05635988 0.176265 -0.012655454
0000b0 eb d6 89 3d 97 50 99 bd 02 40 0e be e3 98 b3 bd
       0.067304455 -0.074860744 -0.13891605 -0.08769395
0000c0 f3 e9 00 3c 33 ef 92 3c 78 81 55 bd 91 68 37 3d
       0.007868278 0.017936325 -0.052125424 0.044777457
0000d0 5d 3a db 3d 30 88 fa 3d 82 02 e1 3d 21 f0 81 3e
       0.10704491 0.12233007 0.109868065 0.25378516
0000e0 bb a3 16 be 1d 18 2c be 5a a7 97 3d e7 6f 10 3e
       -0.14710896 -0.16806073 0.07404967 0.14105187
0000f0 62 a4 26 be 57 ed 90 bd e3 b9 63 3d b0 d5 e3 3d
       -0.16273645 -0.07076519 0.055597197 0.11124742
000100 ca e4 0f 3e 35 9e a8 3d a1 b8 c4 3d 37 21 0f bd
       0.1405212 0.082333006 0.09605528 -0.034943786
000110 ab 4a bb 3b bc 97 72 be d0 e0 a1 3d f7 8b 3a be
       0.005715688 -0.23690695 0.07904208 -0.18217455
000120 92 a7 94 bd 05 7c 41 3c c9 4c 9f bc eb b4 5f bd
       -0.07258524 0.011809354 -0.019445794 -0.054615896
000130 5a 0c b5 bd 63 b2 27 3d e7 3f b9 3d 49 d0 82 3d
       -0.088402465 0.040941607 0.090453915 0.063873835
000140 06 62 f8 bd 03 87 2c be b8 02 cb bc 41 3c 6d 3e
       -0.121280715 -0.16848378 -0.02478157 0.23167516
000150 2e 29 84 3d b8 14 fa 3c 3c 79 e8 3d 05 37 24 3d
       0.06453167 0.030527458 0.113512486 0.040091533
000160 07 b7 74 be 73 7f f8 bd c8 23 22 3e 3e f6 0e 3e
       -0.23897944 -0.12133684 0.15833962 0.13961121
000170 62 0d 3d 3e f6 a2 0f 3e d5 af 05 be 47 a3 23 3d
       0.18462136 0.14027008 -0.13055356 0.039950635
000180 be 12 b5 bc 18 91 f2 3d 59 46 cc bd 5f bf 4a 3e
       -0.022103664 0.11844081 -0.09974355 0.19799565
000190 d2 de 2f 3d eb c4 1b 3c c3 8b a1 bd 65 2f 6b 3d
       0.042937107 0.009507398 -0.078879856 0.057418246
0001a0 10 08 5d be c2 c1 68 be b3 31 f7 3d d8 34 9f 3a
       -0.21585107 -0.22730163 0.12070026 0.0012146486
0001b0 6c 69 23 bd 95 2f 44 3e 55 0e 2f be 09 bf 6c 3d
       -0.03989546 0.19158776 -0.17095311 0.057799373
0001c0 4e ed 4c be cf c7 9b be 94 41 7c bd b8 e1 03 be
       -0.200124 -0.3042588 -0.061585978 -0.12879074
0001d0 89 9c 0e 3a d0 2f 14 3e e5 d0 9d bd a5 a6 eb bd
       0.00054401957 0.14471364 -0.07705859 -0.11506394
0001e0 6c ad 1b be dd 7b 33 bd 6c f3 d2 3d 39 41 9b bc
       -0.15202874 -0.043819297 0.10300335 -0.018951999
0001f0 5a 2a 3c 3e e5 10 11 3d 87 2b 59 be 50 7a 78 bd
       0.18375531 0.035416503 -0.2120801 -0.06066352
000200 ad 4d 3c be a9 1b a7 3d 52 a0 f8 bd c4 e7 4a be
       -0.18389006 0.08159573 -0.12139954 -0.19814974
000210 b7 fc 47 3d 2d e1 4f 3d b5 22 e7 3c 7d b7 5a be
       0.048824992 0.050751854 0.028214792 -0.21359058
000220 13 57 7b bd 7b b0 45 be 89 f9 71 be 46 c5 ec bd
       -0.061362337 -0.19305603 -0.23630346 -0.115610644
000230 e3 0f 94 bd dd 59 25 3e 3a a5 32 3e 03 13 b1 bc
       -0.07229593 0.16147561 0.17445841 -0.02161551
000240 74 35 65 3e 45 5e d4 3d 6a cb cc 3d fe b7 25 3d
       0.22383672 0.10369543 0.09999736 0.04045867
000250 ad f0 67 3c b9 a5 c7 3d 78 20 2a 3e a9 00 20 3e
       0.014156503 0.09748406 0.16613948 0.15625252
000260 85 9e 0b 3e 00 16 0c bd 96 f5 f5 3d 03 90 fe bc
       0.13634689 -0.03420067 0.120097324 -0.03107453
000270 2d 62 b3 bd c6 f1 d4 3d 3f 09 4e bd d3 d2 94 be
       -0.0875896 0.10397677 -0.050301787 -0.29067096
000280 dd ce 96 3b 69 1a a5 bd a9 30 e9 3c a4 ce 4a be
       0.0046022967 -0.08061678 0.028465586 -0.1980539
000290 8e ce c5 3d 1c b5 63 be 4e ea 85 be cb 70 80 be
       0.09658538 -0.22237056 -0.26155323 -0.25086054
0002a0 a0 68 e8 bb 58 cb bc bd 51 fc 02 be 85 cb 52 be
       -0.0070925504 -0.09218472 -0.12791564 -0.20585449
0002b0 80 09 b1 bd f6 91 3f bd c3 5c 05 3e c4 ff 57 3e
       -0.0864439 -0.04677006 0.13023667 0.2109366
0002c0 e9 bf 61 be 97 b2 5d 3e b6 b4 4e 3d 36 0c 40 bc
       -0.22045864 0.21650158 0.050465308 -0.011721661
0002d0 69 9c 5c 3e 6e 23 0f 3e 96 f2 56 3e 15 0c 7d bd
       0.2154404 0.13978359 0.20990977 -0.0617791
0002e0 6a 51 ee bd 98 9b da 3c 46 06 c7 3d 7d e2 94 bd
       -0.11636622 0.026685521 0.097179934 -0.07269762
0002f0 58 be 15 3e 8e 1f d0 bb 88 b2 01 3e ee 35 0c 3d
       0.14623392 -0.006351418 0.1266576 0.03423112
000300 4e fd 43 3d d8 e1 c6 3d 59 53 fd 3d 6f c5 28 3e
       0.047848992 0.09711045 0.12369413 0.16481565
000310 5f d6 b1 bd 4d 22 4f 3d 13 ed c5 3c a1 be c2 bd
       -0.08683466 0.05056982 0.024160897 -0.09509016
000320 03 a3 06 bc ab 9c 46 be 34 75 36 be 4a d3 31 be
       -0.008217576 -0.19395702 -0.17818147 -0.17365757
000330 c9 a5 b1 3d 31 91 b7 bd 0e 23 35 be 4c 8b 9e 3c
       0.08674199 -0.0896324 -0.17689154 0.019353531
000340 e3 78 32 bd f6 e3 60 3c b7 03 32 be 40 00 88 bc
       -0.043572318 0.013726225 -0.1738423 -0.016601682
000350 85 63 2b be b5 00 18 3d 39 01 dc 3d 65 a0 0e bd
       -0.16737182 0.03711005 0.10742421 -0.034820933
000360 23 3e 13 3d f5 0c 93 3d aa f6 8f bd 7a 68 36 be
       0.03594793 0.07180206 -0.07029469 -0.17813292
000370 cf 54 de bd b1 76 b7 bd b7 4b 7a bd 9b cb 21 3d
       -0.1085602 -0.089581855 -0.061107364 0.039500814
000380 e5 5a 76 bd b3 a7 02 3e 61 3a b8 bb b4 44 09 be
       -0.060145278 0.12759285 -0.0056221937 -0.13405114
000390 fc 4f 8a bd 17 06 6c 3e 3a b2 4b bc 04 34 b8 3d
       -0.06753537 0.23049198 -0.012432629 0.08994296
0003a0 2b 3e 3a be 86 d4 e3 3d df dc 32 be 0c fd 82 3d
       -0.18187778 0.1112452 -0.17467068 0.06395921
0003b0 fe 07 f3 bc 19 98 fb bd 7b ff 6d be 85 f5 1b be
       -0.029666897 -0.1228487 -0.2324199 -0.15230377
0003c0 82 fd ee 3c 04 aa 97 bc 0a 53 35 3d 81 81 bd bd
       0.029173616 -0.018513687 0.044268645 -0.092532165
0003d0 dc 76 06 3d 61 79 d4 bd a9 20 fb 3d 44 96 a6 3d
       0.032828197 -0.10374714 0.12262089 0.0813413
0003e0 23 4e 10 bd bc 2f 53 bd b5 1b 5a 3c f9 63 71 3d
       -0.035230767 -0.051559195 0.01331227 0.058933232
0003f0 17 49 e1 3d 14 09 98 bd b6 ac d8 3d 4f 61 20 3e
       0.11000269 -0.074236065 0.10579817 0.1566212

fc.2.bias f4 [84]
000000 67 b2 ac 3d df cc c4 3b bd c1 ff bd 9f 1d 2d 3d
       0.08432465 0.006005868 -0.124881245 0.042264577
000010 c2 43 b5 bd b1 7a 34 3b c8 b1 d9 bd b7 bb 2b bd
       -0.088508144 0.002753895 -0.10629612 -0.041927066
000020 a6 48 cb bc 04 99 ba bd a9 79 f2 3c f6 01 5c 3c
       -0.024814915 -0.09111217 0.029599028 0.013428202
000030 19 a5 c9 3d ce 98 87 3d a9 98 bd bd 30 73 f7 3c
       0.09845943 0.06620942 -0.09257633 0.030206293
000040 e7 e0 76 3d 35 30 9d 39 d2 39 40 ba c7 03 ab 3d
       0.060273077 0.0002998129 -0.00073328346 0.0835033
000050 34 da 05 bc 7e 64 00 be 3d 45 ba bd 25 e1 dd bd
       -0.008169699 -0.12538335 -0.090952374 -0.108339585
000060 7f 26 30 3d 84 e8 fc 3c 5c 2c d6 3b 3c 03 56 3d
       0.043005463 0.03087259 0.00653605 0.05224918
000070 89 88 9d bc 8d 84 fe 3c b9 95 95 bd 9d 37 8f 3d
       -0.019230144 0.031069065 -0.07303948 0.06993029
000080 12 18 c7 bd 8b dc c0 3d 21 96 c3 bd 2c 0f 1f 3e
       -0.09721388 0.09417065 -0.09550119 0.15533131
000090 67 4f 70 bb b5 b9 ce 3c 20 cc 1f 3d c7 9c 6a 3d
       -0.0036668421 0.025235036 0.03901303 0.05727842
0000a0 ad fa fe bc d2 54 44 3a 1f 78 79 bd a2 2a bc bd
       -0.03112539 0.0007489446 -0.060905572 -0.09187819
0000b0 c6 76 4f bd 3c bc 29 bd 6d 94 7e bd 86 5f a1 3d
       -0.05065038 -0.04143928 -0.06215327 0.07879548
0000c0 a2 97 61 bc ab 91 a3 3d be e5 5e bd 62 c0 e3 bd
       -0.013769062 0.07986768 -0.054418318 -0.111206785
0000d0 1f 8d 82 3d fc dd 84 3d 02 04 32 3d b2 71 8b bc
       0.06374573 0.06487653 0.043460853 -0.017021988
0000e0 16 4f 98 3d a2 a5 c8 3d 33 86 39 3d 85 fe 1b 3e
       0.074369594 0.09797217 0.045293998 0.1523381
0000f0 88 4e a3 3c 6d 15 81 bd 86 4d 01 3c 73 c2 c6 bd
       0.019934908 -0.06302915 0.007892018 -0.09705057
000100 d7 f1 c0 3b ac 7f e1 3d 61 46 b6 3d 5d 63 b3 bd
       0.0058882046 0.110106796 0.089001425 -0.087591864
000110 98 1d f7 bd 36 8e c9 bc 20 59 9c 3d 33 aa c9 bd
       -0.120661914 -0.024603944 0.07634187 -0.09846916
000120 95 8f a0 3d cf f4 95 3d f7 b8 51 bd b5 a5 cd 3c
       0.07839886 0.07322084 -0.051201787 0.02510343
000130 a0 79 94 bd bd cc 18 be 93 1a 46 3e b8 9e cd 3c
       -0.07249761 -0.14921851 0.19346075 0.025100097
000140 3a a6 2b 3e 9e fd d1 bd 32 d5 6c bd 5e 42 8e bd
       0.16762629 -0.10253452 -0.057820506 -0.06946252

fc.4.weight f4 [10, 84]
000000 3f 1e 50 3e b9 a2 bb 3c 7e 32 dc 3d 8f c4 98 3e
       0.20324038 0.02290474 0.10751818 0.29837462
000010 18 c0 09 be 05 47 cb be bb 70 ee 3e fc 64 b2 be
       -0.13452184 -0.3970262 0.46570382 -0.3484267
000020 46 9b b1 be 20 aa 03 3f bf 85 40 3e ff 0e a6 be
       -0.34688777 0.51431465 0.1880102 -0.32433316
000030 90 9f 88 3e d1 54 25 3e a9 95 81 be 26 d2 5d be
       0.26684237 0.16145636 -0.25309494 -0.21662197
000040 8c 01 02 3e 2f 27 9f 3e f1 52 a3 be 69 ff c5 be
       0.12695903 0.31084582 -0.31899217 -0.38671425
000050 02 3f 31 3e 7c f8 17 be 95 f2 c8 be 13 9e 25 bd
       0.17309192 -0.14840883 -0.39247575 -0.040433954
000060 14 b8 a5 3e 02 0d 76 be 24 84 a1 3e 08 87 b8 be
       0.32367003 -0.240284 0.31546128 -0.3604052
000070 89 0c 1a bb 0c a0 3b be 49 cf 95 bd 19 b2 67 3e
       -0.0023506007 -0.18322772 -0.07314927 0.22626533
000080 9a c9 d9 be 9b ee 02 3e e7 71 9b 3e 53 36 56 be
       -0.42536622 0.12786333 0.30360338 -0.2091916
000090 71 88 66 3e f5 fd e5 3e 38 c6 80 be 34 da 06 3e
       0.22512986 0.44920316 -0.2515123 0.13169175
0000a0 10 d2 bb 3e 3c 62 40 be f7 84 6a 3e f8 ce 92 3e
       0.36683702 -0.18787473 0.22902285 0.2867353
0000b0 3d bc 99 3e 7e 39 db 3e 68 5b 04 be 63 b4 d0 be
       0.30026427 0.428173 -0.12925494 -0.40762624
0000c0 43 f1 b2 3e 2b cf 21 3d 87 d8 7d 3e 23 02 9b 3e
       0.34949693 0.03950421 0.2478963 0.30275068
0000d0 e2 2b 27 be 2d 66 41 3e 43 a5 a6 bd 89 ca 7b be
       -0.16325334 0.18886633 -0.0813699 -0.2458898
0000e0 d1 59 91 3e 28 51 2e 3c 53 73 2c be 51 56 7a bd
       0.28388837 0.010639466 -0.16840868 -0.061117474
0000f0 69 e1 dd bd ed 89 c3 3e 18 97 29 3d 51 c1 85 3c
       -0.10834009 0.38191167 0.04140386 0.016327532
000100 54 2d 74 3e 98 4e 93 3d d2 e6 29 3e b8 10 e8 bd
       0.23845416 0.07192725 0.16591957 -0.11331314
000110 b8 9e 7c bd f3 aa fa bd c9 f2 6a 3e e3 27 01 3e
       -0.061674803 -0.12239637 0.22944178 0.12612872
000120 a2 00 78 be 2d 9e 8f be c3 92 ae be 0a 99 8a bd
       -0.24218991 -0.28050366 -0.34096345 -0.06767471
000130 f6 68 ca 3e 2e 50 de 3e 90 76 20 3e 82 b4 2a 3e
       0.39533204 0.43420547 0.15670228 0.16670421
000140 73 bf 54 be bc a4 aa be 76 a3 82 be de 1a b8 3d
       -0.20776157 -0.33328807 -0.25515336 0.089894995
000150 03 c8 8c be 56 8e f8 3d 20 86 27 be 12 f6 ef bd
       -0.27496347 0.121365234 -0.16359758 -0.11716856
000160 c8 48 8b 3e 63 c0 42 3e 44 9d 84 3d c7 e4 ca bd
       0.27203965 0.19018702 0.064753085 -0.09906917
000170 2c 44 fd bd 51 7f 15 be f3 7b 68 be 65 22 63 3d
       -0.123665184 -0.14599349 -0.22703533 0.055452723
000180 92 15 85 3e c8 bf 88 3e 44 e9 e3 be 6b 23 f3 be
       0.2599302 0.26708817 -0.44513905 -0.4748796
000190 04 db 9d be 6f 4a ba be 86 90 5a 3e 5a 4d ab 3d
       -0.30831158 -0.36384913 0.21344194 0.08364363
0001a0 42 3f 34 be 30 01 b1 3d 4b bf 65 3e ce ef 8f bd
       -0.17602256 0.086428046 0.22436254 -0.07028161
0001b0 ce 6c 9c 3e a3 02 d7 3e b2 16 13 bd 5b 18 27 3e
       0.3055176 0.419942 -0.035910316 0.16317885
0001c0 80 51 5e be b0 d0 98 3e 5a f2 ca 3e 68 b4 76 3e
       -0.21710777 0.29846716 0.39638025 0.24092257
0001d0 6e de f6 3d 47 f7 bc 3e da 18 16 be 41 a0 5c 3e
       0.12054144 0.36907408 -0.14657918 0.21545507
0001e0 4d 12 1c bd 5a ee 20 be e4 76 d6 3d a7 0d 7e be
       -0.03810339 -0.15715924 0.10471895 -0.24809895
0001f0 6c 1e e4 bc 64 da 46 3e dd 38 19 be a2 5e e8 3d
       -0.027846538 0.19419247 -0.14963098 0.11346175
000200 11 bd 27 be 91 69 f8 3d 0c 29 a2 3e 2a d2 3c be
       -0.16380717 0.1212951 0.3167194 -0.18439546
000210 14 6d 39 be 88 0e 55 be a1 99 96 be fb 51 0e be
       -0.18108016 -0.20806324 -0.29414085 -0.1389846
000220 87 a3 60 3e d2 66 4f 3e 58 3d 2d 3e 33 12 ae bc
       0.2193738 0.20254067 0.16917932 -0.021248912
000230 68 09 2d be 7a 41 cd be 05 1c b9 3e a3 36 c1 3c
       -0.1689812 -0.40089017 0.3615419 0.023585623
000240 8a a7 82 3e c8 e7 c3 3e 04 c7 f0 be 95 82 b6 be
       0.25518447 0.38262773 -0.47026837 -0.356465
000250 55 4b 8e be 33 7b 93 be 4c 4c 44 3e 1e 98 ac be
       -0.2779185 -0.2880493 0.1916973 -0.33709806
000260 77 99 09 be ad 7e c4 3e 90 9e 89 3e e3 01 d5 be
       -0.13437448 0.38377896 0.26878786 -0.41603002
000270 8a 92 b9 3e 2b de 6a 3e 22 9c 80 bd a6 75 ea bc
       0.36244613 0.22936313 -0.0627978 -0.028620552
000280 2e a9 ad bd ea 1a 97 3e b8 a2 65 be 75 d2 73 3e
       -0.08479534 0.2951272 -0.22425354 0.23810752
000290 76 8b 9d 3e 8d 5d 7a 3e f9 3c 96 be 0a 09 ce bd
       0.30770463 0.2444975 -0.29343393 -0.10060318
0002a0 2a c6 2a be 43 95 fe 3c 8b c5 32 3d b9 4e e9 bd
       -0.16677156 0.031077033 0.043645423 -0.11391968
0002b0 19 5d 71 3e 0f c4 2f 3e 7e 2c ac 3d d3 00 cc be
       0.2357067 0.17164634 0.08406924 -0.3984438
0002c0 4d 7e 8e be 57 91 91 be 28 30 d7 bd 1a e7 67 be
       -0.27830735 -0.28431198 -0.10507232 -0.22646752
0002d0 9d dc 6a be c7 60 c3 be 8a 32 e2 be 32 79 b1 be
       -0.2293572 -0.38159773 -0.44179183 -0.34662777
0002e0 7f 47 94 be 93 53 83 bd c5 9e be 3e e6 a8 6a 3e
       -0.28960797 -0.06412425 0.37230507 0.22915992
0002f0 f8 77 6e bd da cc 73 3e ee 72 ed be f4 3f a9 3e
       -0.05821988 0.23808613 -0.46376747 0.33056605
000300 b4 19 a3 3e 02 5c 5a 3e 08 b7 e0 3e eb 65 56 be
       0.31855547 0.2132416 0.43889642 -0.20937316
000310 f4 37 9a be cc 2e 17 be a7 bb 04 3e 0e e8 04 be
       -0.30120814 -0.14763945 0.12962209 -0.12979147
000320 df c4 b5 bd ad 2f d7 be 09 12 33 be 54 90 06 be
       -0.08875441 -0.4202856 -0.17487349 -0.13140994
000330 c9 a1 99 3e 09 28 41 be cb aa 12 be 03 4f f3 bc
       0.30006245 -0.18862928 -0.14322965 -0.029700762
000340 12 17 8f 3e f2 77 af 3e 5e fb aa 3d be aa dc bd
       0.2794729 0.342712 0.08348726 -0.10774754
000350 8f 57 b8 3d 65 88 94 3e 6b 4a c2 3d 02 74 d7 3e
       0.090010755 0.2901031 0.0948685 0.42080694
000360 cd 9e c3 bd 4a 1f 83 3d 46 85 b6 3e d3 2a b7 3d
       -0.09551773 0.06402452 0.35648555 0.08943715
000370 09 ba 1f 3e df c7 fc 3b 83 45 4e 3e fc c3 15 be
       0.1559831 0.007714256 0.20143704 -0.14625543
000380 1b c5 bc 3e f9 2c 06 3e f1 bf 68 be 86 1e 09 3f
       0.3686913 0.13103093 -0.2272947 0.535622
000390 6c 99 1a 3d 23 47 52 be 64 45 61 be a0 2c 4d 3e
       0.03774397 -0.20534949 -0.21999127 0.20036554
0003a0 a9 66 76 be a7 96 ba 3e 96 d8 41 3e 1a 01 37 3e
       -0.24062599 0.36443064 0.18930277 0.17871514
0003b0 ea e1 5d 3e cd 9c a2 bd bc e5 86 3e 62 f3 9a 3e
       0.2166821 -0.079400636 0.26347148 0.3026381
0003c0 db 88 18 3e e2 a6 b2 be 62 9a a7 bd c2 b4 7c be
       0.14895956 -0.34892946 -0.08183743 -0.24678329
0003d0 4e 0b 86 be e6 43 c6 be 3c 44 e1 3d b1 a3 ca be
       -0.261805 -0.38723677 0.10999343 -0.39578012
0003e0 af 69 3b 3e 54 b9 c0 be f9 43 d8 3e 16 35 73 3e
       0.18302034 -0.37641394 0.4223936 0.2375072
0003f0 0f 69 95 be 34 68 de be 0b 48 e3 3d f0 20 a1 be
       -0.29181716 -0.43438876 0.110977255 -0.31470442

fc.4.bias f4 [10]
000000 a7 ed ff bd 8e 86 96 bd c0 c8 df 3d 22 4a 04 be
       -0.124965005 -0.07349883 0.10926962 -0.12918904
000010 8d 52 ef 3c ef 5c ab bc ab d4 47 bc 6c 46 a0 3d
       0.029214168 -0.020918338 -0.0121967 0.07825932
000020 96 28 10 be 4c 1a 27 3d
       -0.14077982 0.040796563
